checkpoint/tag/val_best.pth (torch, 42775 bytes, 30 tensors)

st_gcns.0.gcn.conv.weight f4 [5, 2, 1, 1]
000000 31 ef 5a bc f2 de 9b 3e 51 29 22 bf 29 6b 1f be
       -0.013362692 0.3044353 -0.63344294 -0.15568222
000010 89 e3 a6 3e 39 8f da 3d 45 92 97 3d 8a 57 cf be
       0.3259547 0.10671849 0.074009456 -0.40496475
000020 8d f7 0d 3f 5f 6c c2 be
       0.5545586 -0.37973306

st_gcns.0.gcn.conv.bias f4 [5]
000000 7c cb 31 bf 70 12 f1 bd 37 e4 00 bf 9d a4 7c 3e
       -0.6945112 -0.11771095 -0.5034823 0.2467217
000010 84 aa 5a 3e
       0.21354109

st_gcns.0.tcn.0.weight f4 [5]
000000 5f 8b 74 3f 6f 19 81 3f 4c 19 6e 3f c9 00 7a 3f
       0.95525163 1.0085887 0.9300735 0.9765745
000010 fc d4 89 3f
       1.0768123

st_gcns.0.tcn.0.bias f4 [5]
000000 1d 4d 27 bd bf e4 2d 3e 1d 02 43 3e 84 6e 90 bd
       -0.040845025 0.16981791 0.19043775 -0.07052329
000010 46 19 1c 3e
       0.15244016

st_gcns.0.tcn.0.running_mean f4 [5]
000000 95 7a 02 bd ce d0 c7 bb 21 4e c9 bc 69 15 0f 3c
       -0.031855185 -0.0060978895 -0.024573388 0.008733132
000010 d7 44 d6 3b
       0.006538968

st_gcns.0.tcn.0.running_var f4 [5]
000000 ca 0d 5f 3c e3 a4 49 3c 5f e7 33 3c e9 fa 45 3b
       0.013614127 0.012307378 0.010980456 0.0030209369
000010 1a b6 3f 3c
       0.011701131

st_gcns.0.tcn.2.weight f4 [5, 5, 3, 1]
000000 10 67 5b be df e1 14 be 60 a4 19 be 78 48 27 be
       -0.21426034 -0.14539288 -0.1500411 -0.16336238
000010 a1 f4 74 be f9 56 07 be c6 53 2d 3e a5 b0 71 3e
       -0.23921444 -0.13216771 0.16926488 0.23602541
000020 28 ca 49 3e 83 0c 3b be 40 0a 58 be c7 c6 1d bc
       0.19706023 -0.18266492 -0.2109766 -0.009629912
000030 46 0b 15 be 4b b1 70 bd 07 16 22 be db 0b 75 3d
       -0.14555082 -0.05876283 -0.15828715 0.05982576
000040 38 d4 08 bd 1e 19 90 3e 83 62 38 3d c0 89 37 be
       -0.033405513 0.28144163 0.045015823 -0.17923641
000050 bb 8f ef bc e7 d9 08 bd 06 59 c3 3d 50 ba d3 3d
       -0.02924334 -0.033410933 0.09538464 0.10338271
000060 1b 78 77 3c 8e f5 0f 3e 19 2c 11 be 05 28 5c 3b
       0.015104319 0.14058515 -0.14176978 0.003359319
000070 b9 33 ac be 88 ab 91 be 41 57 8a 3d 9b 67 41 be
       -0.3363321 -0.2845118 0.067549236 -0.18887179
000080 c7 9a d8 bd 40 1b b8 bd 8c 1f 0e be 7e 35 30 bd
       -0.105763964 -0.089895725 -0.13879222 -0.043019764
000090 e4 f2 54 bd 75 ed 4e 3e 7d 1a 90 3e fd 92 bb bd
       -0.05198945 0.2020777 0.2814521 -0.09158895
0000a0 15 da 39 be 85 82 20 be 78 9a a6 3d a7 b5 db bd
       -0.18149598 -0.15674789 0.08134931 -0.10728007
0000b0 f1 ab b4 bc 3a 07 21 be 75 f3 f6 bd 5e 6e 09 3e
       -0.022054644 -0.15725413 -0.120581545 0.13421008
0000c0 37 f4 9a be 64 f1 69 be a4 77 7c bd 54 48 0a 3e
       -0.30264446 -0.2284599 -0.061637536 0.13504153
0000d0 28 72 30 3e 50 02 9a bd 48 25 6c bc ef 2c 8a be
       0.17231047 -0.07519972 -0.014413185 -0.26987407
0000e0 16 cb 64 3d 48 ff 86 be 9b b3 20 be 28 95 a4 bd
       0.05585774 -0.2636664 -0.15693514 -0.08036262
0000f0 3d ed 84 bc 0f 4a 04 be 91 f1 39 3c 43 f0 50 be
       -0.016226405 -0.12918876 0.011349098 -0.20404153
000100 cd 46 89 be 16 28 e8 bb 14 99 fc 3c 9e b5 98 3e
       -0.2681183 -0.0070848567 0.030834712 0.29826063
000110 64 d7 22 3d 6f 32 97 3d 92 7c 3c be a0 a6 c2 3d
       0.039756194 0.07382666 -0.18406895 0.095044374
000120 52 e6 7d bd 06 87 a6 be 6b 71 33 be
       -0.06198723 -0.3252489 -0.17523734

st_gcns.0.tcn.2.bias f4 [5]
000000 a6 f5 11 3e 80 90 79 be 68 67 91 bd df f0 1e 3d
       0.14253864 -0.24371529 -0.07099801 0.03880393
000010 f9 40 60 3e
       0.21899785

st_gcns.0.tcn.3.weight f4 [5]
000000 b1 ac 03 3f f7 5a 47 3e ab 75 bb 3e 57 28 17 3f
       0.5143538 0.19468294 0.3661321 0.5904593
000010 b9 20 ad 3e
       0.33814028

st_gcns.0.tcn.3.bias f4 [5]
000000 04 11 46 bc da 1e f4 3c dd 67 72 be ef 01 f7 bc
       -0.012089018 0.029799867 -0.23672433 -0.03015229
000010 b1 72 a9 3c
       0.020684572

st_gcns.0.tcn.3.running_mean f4 [5]
000000 48 ac f5 bd 00 09 d3 be 88 5c 24 be d8 b8 a1 be
       -0.11995751 -0.41217804 -0.16050923 -0.31586337
000010 5f b3 2d bd
       -0.04240739

st_gcns.0.tcn.3.running_var f4 [5]
000000 a6 20 88 3e 78 1d 93 3e 77 5f 30 3e 05 66 55 3e
       0.2658741 0.2873342 0.17223917 0.20839699
000010 0e a7 2c 3e
       0.16860601

st_gcns.0.residual.0.weight f4 [5, 2, 1, 1]
000000 a3 c8 b2 be ca cc d1 be af 22 b0 bd 4d 89 26 3e
       -0.349187 -0.40976554 -0.08600365 0.16263314
000010 fb 67 ca be ad 0e 26 3f 6b 0a ec bd 75 d2 1b be
       -0.39532456 0.64866143 -0.115254246 -0.15217002
000020 80 6c 1f 3d 43 17 f7 3c
       0.038921833 0.03016246

st_gcns.0.residual.0.bias f4 [5]
000000 a6 53 be 3e a1 7a 29 3f 7c 5d 12 bf 8f eb 0e bf
       0.37173194 0.6620274 -0.57173896 -0.55828184
000010 50 a0 bb be
       -0.36645746

st_gcns.0.residual.1.weight f4 [5]
000000 2e 92 3b 3f a4 31 b5 3f e1 af 48 3f f7 c7 90 3f
       0.7326993 1.4155774 0.7839337 1.1311024
000010 c5 b4 88 3f
       1.0680166

st_gcns.0.residual.1.bias f4 [5]
000000 04 11 46 bc da 1e f4 3c dd 67 72 be ef 01 f7 bc
       -0.012089018 0.029799867 -0.23672433 -0.03015229
000010 b1 72 a9 3c
       0.020684572

st_gcns.0.residual.1.running_mean f4 [5]
000000 cb b9 b5 3e 51 37 27 3f 5c 4f 1c bf c5 31 10 bf
       0.3549331 0.6531878 -0.6105859 -0.5632594
000010 34 bd ba be
       -0.36472476

st_gcns.0.residual.1.running_var f4 [5]
000000 f0 e9 51 3c 5d e9 ad 3a c3 bb c8 3c 01 71 be 3a
       0.012812123 0.00132684 0.024503594 0.0014529527
000010 95 e6 f3 38
       0.00011630092

tpcnns.0.weight f4 [12, 8, 3, 3]
000000 d0 60 da 3d e7 7b d7 3d 46 9a c8 3d 8a 00 39 bd
       0.10662997 0.10521679 0.0979505 -0.04516653
000010 d8 40 c7 bd 87 53 6f bd 3b c4 f5 3c 16 62 4d 3e
       -0.09729165 -0.058429267 0.030000797 0.20056948
000020 80 62 54 3b d3 a0 9a bc 31 a7 dd bd cc 15 f1 3c
       0.0032407343 -0.018875515 -0.10822905 0.029429339
000030 1f a8 93 3c 78 89 de bc 8f 15 0d bc 57 f0 93 bd
       0.018024502 -0.02716516 -0.008611097 -0.072235756
000040 1b 2c c3 bd d0 ef 27 bd 76 a0 27 3d 57 39 b0 3c
       -0.09529897 -0.041000187 0.04092451 0.021511717
000050 92 f4 96 bc 93 27 6c 38 79 8b a1 bd e2 76 0a bd
       -0.018427167 5.630364e-05 -0.078879304 -0.03380478
000060 c5 d8 98 3c da 2c 81 3d 25 9e 1b 3d 53 89 b3 3b
       0.018658051 0.06307383 0.037992615 0.005479017
000070 02 5e a5 3c 13 4c 95 bd af 47 b0 bc f2 a2 d3 bd
       0.020186428 -0.07289901 -0.021518556 -0.10333814
000080 e9 d0 8e 3c eb 5f be bc 61 e1 05 3b eb 09 ab bc
       0.0174336 -0.023239097 0.0020428526 -0.020878753
000090 cb 4d 6b 3d 3f e5 ca 3d e3 85 df 3d 83 1b 9e bd
       0.057447236 0.099070065 0.10914209 -0.07720091
0000a0 3c 0f 6f 3d 82 45 28 bd 36 90 5b bd 75 9b 0e 3d
       0.058364138 -0.041081913 -0.053604327 0.034816224
0000b0 73 93 38 bd 00 d9 ba 3b ef 76 61 3d e6 88 66 3c
       -0.045062494 0.005702138 0.055045065 0.014070725
0000c0 5d 1b ad 3c 28 e8 a0 bd d0 7b b1 3b 8c 15 ed bb
       0.021131212 -0.0785678 0.005416371 -0.0072352346
0000d0 60 a3 03 bd 47 18 c7 3c a1 1e 5b 3d f3 cf e3 3d
       -0.03213823 0.024303569 0.053496007 0.111236475
0000e0 85 fd 23 3d 05 38 7b 3c d1 7e 23 3d c9 53 82 3c
       0.040036697 0.01533318 0.039915863 0.015909093
0000f0 a6 c9 9a 3d 86 f9 c7 3c 1c f3 5b 3d 4e 7d c2 3b
       0.07557993 0.024410974 0.053698644 0.0059353476
000100 30 cf 06 3d 49 68 97 3d 3b 0f ea bc 19 05 15 3c
       0.032912433 0.07392938 -0.028571716 0.009095454
000110 e9 9c c5 bd ab 69 3b 3d 6d cf 18 be e9 94 90 bc
       -0.09649069 0.04575507 -0.14922877 -0.01764913
000120 6e 2d f0 bd 49 f8 9d 3c 68 1a 75 bc a7 eb 3b 3d
       -0.11727415 0.01928343 -0.014959909 0.045879032
000130 31 8e 33 be 11 5f 7e bd fa 25 ac 3d 0f 96 ad 3d
       -0.1753471 -0.06210238 0.08405681 0.08475887
000140 d4 56 29 bc c7 9c de 3c af d8 37 bc d6 89 90 bd
       -0.010335643 0.027174367 -0.011221095 -0.0705754
000150 8b c8 1e bd c0 85 35 3d 1f f8 5f 3c 18 76 ce bc
       -0.03876547 0.044317007 0.0136699965 -0.025202796
000160 ff 9a 10 3c a3 22 12 3c f4 54 09 3d 2b d3 07 bd
       0.008826016 0.008919391 0.033528283 -0.03316037
000170 30 00 27 3c 3e a8 ab 3b 24 b8 a0 3d 27 91 b4 3b
       0.010192916 0.005238562 0.07847622 0.0055104676
000180 c8 b6 a3 bc 92 66 e4 bd d8 53 0c bd cc df b0 3c
       -0.019984618 -0.11152376 -0.034259647 0.02159109
000190 ab 01 bd bd e5 48 82 3d ee 5e 79 3d 5a 27 fa 3d
       -0.09228834 0.0636156 0.060881548 0.12214537
0001a0 e7 66 b2 3c 89 21 0a be bb e9 1c be d5 87 e4 bc
       0.021777583 -0.13489355 -0.15323536 -0.027896801
0001b0 0f 28 29 bd 1f 20 ca bb 9c 04 44 bd a9 9f 84 3d
       -0.04129797 -0.00616838 -0.04785596 0.06475765
0001c0 af 6f a6 3d da 59 e8 3d 63 b6 77 bb 9f 2f 6b bd
       0.08126771 0.11345263 -0.003779792 -0.057418462
0001d0 ed 76 20 bc 6e ad 4e 3d 6b 77 db 3d 67 c6 6d 3d
       -0.009793979 0.050458364 0.107161365 0.05805054
0001e0 6f fe 26 bd 9c 20 55 3d f2 ec 20 3d c9 2d 14 bd
       -0.04076999 0.05203305 0.03928847 -0.036176477
0001f0 73 f8 b3 bc f7 23 df bb fe 0f a4 bb 05 61 04 3d
       -0.021969056 -0.0068097073 -0.005006789 0.032319088
000200 b5 1c ad 3c ca cb 0e 3c a0 40 1f ba e1 e8 b1 bb
       0.021131853 0.008715579 -0.00060749985 -0.0054293727
000210 84 ca 49 bd 42 27 9d bc 1f 5a 09 bd 1f 7d 61 bc
       -0.0492654 -0.019183759 -0.03353321 -0.013762741
000220 a1 be 16 bd ce b5 e0 3b e7 1d 96 3c a9 b6 49 3d
       -0.03680289 0.0068576103 0.018324805 0.049246464
000230 75 39 71 3d 0d c9 48 bc 7a 34 c7 bd d4 87 89 bd
       0.058892686 -0.0122549655 -0.09726806 -0.0671536
000240 03 57 9c bd 5e 28 51 3d 45 ce ba bd d8 50 5e be
       -0.07633784 0.051063888 -0.09121374 -0.21710527
000250 34 7e 45 be 9b 6a 21 bd 27 8b 42 bd 2b e6 2d ba
       -0.19286424 -0.039408308 -0.047495987 -0.0006633724
000260 32 39 23 bc b5 73 e3 bc 91 e2 40 3e de ee 9a 3b
       -0.009962367 -0.027765134 0.18836428 0.004728182
000270 8e 60 b6 3b b9 c1 61 3c 24 5f ae 3c b0 b8 b5 bb
       0.0055657094 0.013779097 0.021285601 -0.005545698
000280 2d b6 69 bc bf 9b 19 bd 2c 54 40 3d a3 b2 d5 3d
       -0.0142646255 -0.037502047 0.046955273 0.10434463
000290 38 a3 81 bd 77 31 98 bb f4 4f 15 bd b0 88 25 3c
       -0.0632996 -0.0046445685 -0.036453202 0.01010339
0002a0 02 95 32 3d dd 50 07 3e ad 80 7b ba 2a 71 04 3d
       0.043599136 0.1321444 -0.00095940643 0.032334484
0002b0 5b a3 89 bd 77 b4 cf bb 7b 37 b0 3b 2b 1e 19 3c
       -0.06720611 -0.0063386518 0.0053777075 0.0093455715
0002c0 5f 61 2a 3d f4 af dd 3c c4 37 ba 3c c3 18 34 3d
       0.041596767 0.02706144 0.02273167 0.043968927
0002d0 37 63 5a bd 00 c3 89 bd 77 d4 3b bc 64 e0 fd bd
       -0.053317275 -0.067266464 -0.01146423 -0.12396315
0002e0 85 bb 1b be f0 4f bd 3c 22 34 93 bc 87 07 08 bd
       -0.15208252 0.023109406 -0.017969195 -0.033210304
0002f0 50 c5 98 bd 51 e1 11 3e 89 b7 39 3e 6b 52 8a 3d
       -0.074595094 0.14246108 0.1813642 0.06754001
000300 c4 1c 77 3d 6b 11 e5 3d dc 18 19 bd 13 30 23 bd
       0.060330167 0.11184963 -0.037377223 -0.03984077
000310 06 7e b2 ba 89 34 e7 3c fe 10 94 3b a8 f0 c4 bc
       -0.001361788 0.028223293 0.004518627 -0.024040535
000320 fc 0d 03 bc 24 f8 14 3d 89 25 9d 3a 4d d0 9f 3c
       -0.00799894 0.036369458 0.0011989336 0.019508505
000330 76 88 49 3d dd cb d9 3d 18 39 d8 bc 29 c2 82 bc
       0.049202405 0.10634587 -0.026394412 -0.015961723
000340 19 21 d1 3b 54 72 36 3d df a4 90 3d db ae 44 be
       0.0063821194 0.044542626 0.07062697 -0.19207327
000350 50 5e d9 3c 11 93 4f bc 2f 68 0d be 58 c5 1c 3c
       0.02653423 -0.012669341 -0.13809274 0.009568535
000360 43 89 e3 bc 5f f4 44 bd 9b 25 88 bd 5f 65 18 bd
       -0.027775412 -0.048084613 -0.06647798 -0.03720605
000370 46 d2 87 bd f5 bb f6 3a 6e d2 52 bd 51 3c bb bd
       -0.06631903 0.0018824326 -0.051470213 -0.09142364
000380 2b be 87 3c 19 0f 87 3d d6 ea 43 3e 21 6c 35 bc
       0.016570171 0.065946765 0.19132552 -0.011073143
000390 f2 eb 35 3d b5 28 bd 3b 86 c1 39 3d 9b b2 61 3d
       0.044414468 0.005772675 0.045350574 0.055101972
0003a0 7d b4 7d 3e e7 57 12 bc c1 dd e6 bc ec d1 66 be
       0.24775882 -0.00893209 -0.028181912 -0.22541016
0003b0 c3 49 91 bd cf 99 40 3d d2 87 9f bd f4 16 0d bd
       -0.07094147 0.047021683 -0.077895775 -0.034445718
0003c0 28 8e 93 bd a5 0d 89 3d 49 56 11 3d 44 1b 40 3d
       -0.072048485 0.066920556 0.03548268 0.046901003
0003d0 c8 90 7c bd 83 61 c6 3d 98 ce 49 3d 4c c4 56 bd
       -0.06166151 0.09686568 0.04926929 -0.052433297
0003e0 2b 7f 88 3d cd 5f 9b 3d 5e a7 52 3e 55 4f c8 bc
       0.0666488 0.07586632 0.20571658 -0.024451891
0003f0 ed c2 ed 3d a9 b1 c1 bd c4 a3 02 bd 3f 08 e4 bd
       0.11609445 -0.09457714 -0.03189446 -0.11134385

tpcnns.0.bias f4 [12]
000000 42 ce 4e 3e 56 f9 62 3e f8 cd 53 bc 29 c0 04 be
       0.20195869 0.22165427 -0.012927525 -0.12963928
000010 0b ca 5b 3e e8 e9 88 3d 20 56 7e be 2e 85 0d be
       0.21463792 0.06685239 -0.24837542 -0.13820335
000020 55 a3 b2 bb 61 ba 1d 3e 08 87 6a 3e a8 0c 31 be
       -0.0054515996 0.15403129 0.22903073 -0.17289984

tpcnns.1.weight f4 [12, 12, 3, 3]
000000 eb f0 a7 bd 01 d7 fa 3d 16 b3 2c 3a 29 64 e1 bc
       -0.08200248 0.1224804 0.0006587965 -0.02751358
000010 ab 2c 1a be df ea fc 3b bf 94 ce bd 29 0a 0e bd
       -0.15056102 0.0077184285 -0.10086965 -0.03467766
000020 b6 00 e4 3c 67 51 77 3d 73 57 c3 3d 31 a0 53 3d
       0.02783237 0.060380366 0.09538164 0.051666442
000030 93 0f 9e bd c1 9e 91 bd c4 76 08 be 70 7a 8a 3d
       -0.07717814 -0.07110358 -0.13326555 0.06761634
000040 9d 00 c7 3d 95 75 d2 bd 96 9c 17 3d fe 85 11 3e
       0.09716914 -0.10276333 0.037014566 0.1421127
000050 b5 f4 4f 3d 88 a2 08 bd e5 7f 3c 3d 30 7a 0a 3d
       0.05077048 -0.033358127 0.046020407 0.033807933
000060 44 af 47 bd 1b 48 43 3d ae dd c3 3c ee aa 46 3d
       -0.04875113 0.047676187 0.023909416 0.048502855
000070 3e 5b ed 3c dd 48 57 bc b7 69 99 3d bb bd 70 bd
       0.028974172 -0.013139931 0.07490867 -0.05877469
000080 1a bf 31 3d 0f 0e 09 3d ea 91 9d bd c2 3c 50 3c
       0.04339514 0.033460673 -0.076938465 0.012709798
000090 56 04 63 3d 37 db 81 bd 94 93 b5 bd 56 d8 c6 bd
       0.055424057 -0.0634064 -0.08866039 -0.097092316
0000a0 ae 98 0e be 08 98 8b bd ce a4 fe bb 54 38 cf 3d
       -0.1392543 -0.06816107 -0.007771111 0.101181656
0000b0 f2 89 e7 3c f9 3e 24 bd 66 8d ca 3c 9b 44 b2 bd
       0.02826402 -0.040099118 0.024725627 -0.08704492
0000c0 1d 60 29 bd 0f bf 46 3d 05 19 74 3d c0 1a 82 bd
       -0.041351426 0.04852205 0.059594173 -0.063527584
0000d0 64 27 06 bd 3d ef ab 3d d0 d0 d8 3c e1 f4 50 bc
       -0.03275241 0.083952405 0.026466757 -0.012753696
0000e0 e4 75 81 bd 50 19 91 3c 0b 9e d6 3c cd a9 40 3d
       -0.06321314 0.017712265 0.026198408 0.047036935
0000f0 26 49 14 bb e0 b9 80 3d 0f d0 8f bb 47 d2 c7 bd
       -0.0022626608 0.06285453 -0.004388816 -0.09756904
000100 24 42 c9 bd 2a fb ff bd f9 fe f1 3c 93 81 f8 bd
       -0.098270684 -0.124990776 0.029540526 -0.12134089
000110 b2 79 2d bd 57 25 3f bd 5a 1a bf bd 10 cc 24 bd
       -0.042352386 -0.04666647 -0.09331198 -0.04023367
000120 4e 69 92 bd fa 8c 53 bc 8c 68 b5 3c aa 9e a6 3d
       -0.071489915 -0.012912029 0.022144578 0.081357315
000130 90 99 30 bd e4 fa 7a bd 5c 30 20 bc 1a bf 46 3d
       -0.0431152 -0.061274424 -0.009777155 0.048522092
000140 67 36 ae 3d 8a 59 a0 bd 33 1b d1 3c 5c f4 11 3d
       0.0850647 -0.07829578 0.025525665 0.03563343
000150 ec b4 c9 bd 56 56 12 bc 14 1a 6d 3c c6 0d 84 bd
       -0.09848961 -0.008931717 0.01447155 -0.064479396
000160 a7 c0 fc bd 84 32 47 3d 38 96 0a 3d 44 a5 1f bd
       -0.12341433 0.04863216 0.033834666 -0.03897597
000170 a2 b9 fc 3c 97 f0 d2 3c f9 8d 7d bc 8c 3b 86 3d
       0.030850235 0.025749488 -0.015475743 0.065543264
000180 2b eb 9d bc c9 9d 94 3c 32 71 7f bd 7e fc 9f 3d
       -0.019277176 0.018141644 -0.06236381 0.07811831
000190 05 7a eb 3c 1e 12 e9 bb 9e 3a 18 bd fa 7f 5a 3d
       0.028744707 -0.0071127554 -0.037165277 0.053344704
0001a0 5e ba ef 3d 86 42 0e bb 53 a2 78 bd de 89 2d bd
       0.117054686 -0.0021707132 -0.06070168 -0.04236781
0001b0 1a 91 f7 bd f9 a6 21 3c 14 15 18 bd eb 02 7e 3d
       -0.12088223 0.00986647 -0.037129477 0.0620145
0001c0 87 1b a6 bd dd e1 e2 bd b0 cb 06 bc bd 5e 62 bd
       -0.08110719 -0.11078236 -0.008227274 -0.05526613
0001d0 60 2a 07 be 4a 83 21 bd a5 ef 99 bd 41 c9 88 3d
       -0.13199759 -0.039431848 -0.07516412 0.06679011
0001e0 90 4c 56 3d 8b 3f d8 bd 92 2b 9f bd b0 d6 01 be
       0.05231911 -0.10558995 -0.07771982 -0.12679553
0001f0 ef 9c b8 bc 9b c6 a6 bc 7f 7f ae bd 12 1a 32 bd
       -0.02253577 -0.020358374 -0.08520412 -0.043481894
000200 9a 1f a7 bd f1 36 b4 3d 20 83 1f 3d 58 87 33 bd
       -0.081603244 0.08799542 0.03894341 -0.043830246
000210 a1 64 98 bd a3 c2 bd bd ef 23 0e 3d de a9 97 bc
       -0.074410684 -0.0926564 0.034702238 -0.018513616
000220 a9 73 c6 3d b8 87 1c 3d 08 e7 29 3d 99 df 94 bd
       0.09690029 0.03821537 0.041480094 -0.0726921
000230 d6 29 60 bd 42 f9 a9 3d 82 7c 1c bc 48 af e6 3d
       -0.054727398 0.08299495 -0.009551169 0.11263901
000240 23 75 c4 3d b9 2a 42 bd 75 67 c7 3d e8 8d 38 3c
       0.095926546 -0.047404025 0.0973653 0.011264302
000250 1d 27 2d be 8d 7d f5 bc 54 01 41 bd 6b 65 18 bd
       -0.16909452 -0.029967094 -0.047120407 -0.037206095
000260 bc ba 17 bd 6e 85 7e bb 3d 0f be bd 07 bc 9d 3d
       -0.03704332 -0.0038836855 -0.0928025 0.07701879
000270 3e 27 44 bd 71 90 d0 bd a5 4c a3 3d 7e 17 e5 bc
       -0.047888987 -0.101838 0.07973603 -0.027965304
000280 bd c7 12 3c fd 3b bb bd 0a d0 56 bd b9 af 8c bc
       0.008958754 -0.09142301 -0.052444495 -0.017173635
000290 58 e9 6a 3d c8 8a 87 bd 9d c3 83 bd b3 a6 b1 bc
       0.05735144 -0.06618267 -0.06433795 -0.021685934
0002a0 c0 e5 df bc e9 75 a6 3d e0 c3 cf 3d 42 b8 3b 3d
       -0.027331233 0.08127958 0.10144782 0.04583002
0002b0 22 87 dd bd 9e 44 b5 3d a9 6a c2 3d 97 41 14 3d
       -0.1081679 0.08850978 0.09493 0.036195364
0002c0 b8 c8 6e bc ec da 52 bd 96 4f 09 3d d9 97 e6 bc
       -0.014574222 -0.05147831 0.033523165 -0.028148578
0002d0 10 0f 13 3d 56 43 f3 3b 93 e2 11 3c b1 83 7d bd
       0.035903037 0.0074237986 0.008904117 -0.06189317
0002e0 bc 81 8b bd 2a f8 34 bd fc 9f ab 3d a7 44 60 3d
       -0.06811854 -0.04418198 0.08380124 0.054752972
0002f0 35 18 38 bd 3d e7 41 bb 64 5a 41 bc 51 9d 87 3d
       -0.04494496 -0.0029587292 -0.011801336 0.066218026
000300 e4 e4 9d bd ad 6b 07 3c 53 e0 f3 bb 7f 9b 86 bb
       -0.07709673 0.008265418 -0.007442513 -0.004107892
000310 4c ec bb bd ba d3 b5 bc bb 34 e0 bd 39 c7 8f bd
       -0.091759294 -0.022195686 -0.109475575 -0.070204206
000320 61 70 16 be 38 b9 40 3d c3 f2 84 bd c3 1a de b9
       -0.14691307 0.04705164 -0.064916156 -0.0004236308
000330 4e 42 48 3d 53 e8 0a bd 3d 6f dd 3c e1 98 4a 3d
       0.048891358 -0.033912968 0.027030582 0.049462203
000340 61 47 3e 3d 59 4a 88 bc 11 dc 95 bc 2c 4a 49 bd
       0.04645479 -0.016637014 -0.018293412 -0.049143
000350 87 29 bf bd a0 25 ca 3b 4d ad 07 3c fc b5 90 3d
       -0.093340926 0.006169036 0.008281064 0.07065961
000360 59 4f f9 bd 38 f1 0c be 43 c2 14 be 18 d8 fd bd
       -0.121733375 -0.13763893 -0.1452723 -0.12394732
000370 68 5b 46 be 4a db 11 be b2 9e a0 bd 2e a9 88 3c
       -0.19370806 -0.14243808 -0.07842769 0.016682234
000380 87 33 14 bc 73 51 93 3c 70 30 16 3e e3 b9 d1 3d
       -0.009045488 0.017983174 0.14666915 0.10240533
000390 23 e7 50 bd e8 76 00 3d cc df 9d 3d 94 3e 25 bd
       -0.05100168 0.031363398 0.077087015 -0.040342882
0003a0 9c 32 38 3a ae b5 97 bd 32 57 cb ba 2c 74 5d bb
       0.00070265844 -0.074076995 -0.0015513657 -0.0033791168
0003b0 d0 f0 9b bd 49 8e a4 bd 00 ba 47 bd fb 71 48 3d
       -0.07614291 -0.08034951 -0.048761368 0.048936825
0003c0 d8 90 31 bd 45 19 75 bd 2a 63 6a 3c e5 54 3a 3d
       -0.043351024 -0.059838552 0.014305869 0.045491118
0003d0 21 86 a1 3c 8b 5f c4 bd d2 dc a8 3d 46 32 16 3e
       0.019717278 -0.09588536 0.08245243 0.14667615
0003e0 96 cc 62 3d b2 fa 59 3d 08 11 7f 3c fc a4 8c bd
       0.05537089 0.053217597 0.015568025 -0.06867406
0003f0 36 3a 57 bd 7e e1 5a 3d 94 d3 1d 3c b7 0c 83 bd
       -0.05254575 0.053437702 0.009632964 -0.063989095

tpcnns.1.bias f4 [12]
000000 7b d7 33 bd ae 22 cf bd 14 96 0d 3e bd 67 72 bd
       -0.04390667 -0.101140365 0.13826782 -0.059180964
000010 49 4a 3e 3e 69 bf c3 3e 31 fc 3c 3e 9a 04 32 3e
       0.18583025 0.38231972 0.18455578 0.17384568
000020 f5 5d 8c 3e 04 11 fe 3c 8a b8 a3 3e 01 de ed 3e
       0.27415434 0.031013973 0.3197673 0.46458438

tpcnns.2.weight f4 [12, 12, 3, 3]
000000 26 ca 13 be 10 14 1f 3d cc 00 cb bc 9b 7e 2e be
       -0.14432582 0.038837492 -0.024780653 -0.17040484
000010 13 17 28 3c 00 51 10 be 83 24 9f 3d b5 7c 99 3d
       0.010259408 -0.14093399 0.07770636 0.07494489
000020 3b c9 63 bd 82 06 0e bd 46 dc 3d 3d 60 1a 2d bd
       -0.05561183 -0.034674175 0.046352647 -0.04226148
000030 15 cf 3a 3d de b2 46 3c d3 18 bf bb 16 84 c3 bb
       0.045607645 0.012127606 -0.0058318167 -0.0059666736
000040 f6 1d 06 3d 4b c4 f9 3c ba 55 8a 3c 0a a0 d3 3c
       0.032743417 0.030489108 0.01688658 0.025833149
000050 b1 c1 b7 3c 00 2e d9 3c f3 ff 97 ba 37 33 cb bc
       0.022431226 0.026511192 -0.0011596665 -0.024804695
000060 b9 a2 d1 bd f6 07 f1 3a e2 4c 84 bd 26 ef 78 3d
       -0.10236115 0.0018389213 -0.06459977 0.060774945
000070 08 a7 1a bd c3 2b 86 bd da b6 c2 3b e5 e6 8a 3d
       -0.03775695 -0.06551316 0.0059422078 0.06782321
000080 12 62 b0 bd 45 5f 27 bd e3 4c b1 bd 64 c3 ac bd
       -0.086124554 -0.04086234 -0.08657243 -0.08435705
000090 06 2f 97 bd 75 29 0f be 97 00 d4 bc e9 4a a8 bd
       -0.07382016 -0.13980658 -0.025879188 -0.08217413
0000a0 90 dd bc bd c3 f8 eb 3c 2b 38 1d 3d c2 21 7a 3d
       -0.09221947 0.028805142 0.038383644 0.06106735
0000b0 7d 27 90 3d 23 38 1a 3d 42 8c 10 3d ea 86 70 3b
       0.07038782 0.037651192 0.03529001 0.0036701509
0000c0 9b e6 a1 bd ac 81 87 bd ae cc e9 bd 8b d4 82 bd
       -0.07905313 -0.0661653 -0.11415993 -0.063881956
0000d0 83 13 91 bd d7 64 0b 3e fe 5f ba 3c 7f 70 7a 3d
       -0.070838 0.13612686 0.02275085 0.06114244
0000e0 96 37 9e bd b5 b7 3b bd b3 ac a9 3a 8f 56 82 3a
       -0.07725446 -0.045829494 0.0012945145 0.0009944009
0000f0 b1 17 42 3d ba ab 0b bd c3 d0 3b 3d d9 39 ac 3d
       0.047385875 -0.034099318 0.045853388 0.08409471
000100 3e 60 0c 3d 41 c3 c6 bc b5 6f 29 bc d3 0d b6 bd
       0.03427147 -0.024263026 -0.010341574 -0.088893555
000110 ff 3b 86 bd 00 93 56 bc d6 c3 d1 bc 18 53 52 bd
       -0.06554412 -0.013096571 -0.025606077 -0.051348776
000120 75 bb 0c bd 61 1b 74 bd 33 be 03 3d 5e 7b 6e 3d
       -0.03435846 -0.059596423 0.03216381 0.05822312
000130 e7 a3 15 3c d9 45 ba bd 7d f2 24 3d a5 cb 12 bc
       0.009133316 -0.09095354 0.040270317 -0.008959685
000140 d9 63 6d 3d 91 a2 60 bc e7 36 96 3d 0a e9 ce 3d
       0.05795655 -0.013710634 0.073346905 0.101030424
000150 71 d9 46 be 81 35 ec b9 85 81 13 be fd 12 53 bd
       -0.19418885 -0.0004505329 -0.14404877 -0.05153178
000160 b2 f6 bb bd cf 70 cd bd 33 d6 bd bb 66 0f 71 3d
       -0.09177913 -0.10031282 -0.005793357 0.058852576
000170 4e e2 fe 3d 7a 2b ae bd 94 de 16 be 0e 84 9c bd
       0.12445508 -0.08504386 -0.14733344 -0.07642375
000180 09 27 d3 3b e1 a3 55 3d c5 f7 d5 3c 93 a9 ef bb
       0.0064438623 0.05215824 0.026119122 -0.007313916
000190 d1 9b 1e bd fc 04 a3 bc 15 f3 78 bd 1b 17 d0 bc
       -0.038722817 -0.019899838 -0.060778696 -0.025401643
0001a0 f4 64 1f 3d 9a 5c 00 3e ca 2d b3 bd 36 7c 4c 3c
       0.038914636 0.12535325 -0.08748968 0.012480786
0001b0 3f 27 89 bb 1e d0 02 3d fe 95 ad 3c db 5a 14 3d
       -0.0041855867 0.031936757 0.021189686 0.03621946
0001c0 68 3a 80 3d 18 a8 ec bd fc a0 f4 bd ac 81 73 be
       0.0626114 -0.11555499 -0.11944768 -0.23779935
0001d0 34 5e 91 bd a9 c7 14 bd 46 e0 db b9 db 76 38 3d
       -0.07098046 -0.036323223 -0.00041938032 0.045035224
0001e0 0c 5a 58 3d 8c 61 0a be 26 7f c4 bc af a3 29 bb
       0.05282025 -0.13513774 -0.02398641 -0.0025884917
0001f0 26 49 f1 bd 13 3a c5 bd 87 40 ef bd 5c 98 2c be
       -0.1178153 -0.096302174 -0.116822295 -0.16854995
000200 6a 6c c1 bd 35 90 d0 3c 7d ed b4 bc 16 dc d2 3d
       -0.094445065 0.025459388 -0.0220859 0.10295884
000210 7d 90 37 bd 00 3d 86 bd 99 b7 ec bc 2a f0 42 3c
       -0.04481553 -0.065546036 -0.02889614 0.01189808
000220 de e0 95 bb b0 cc de 3c d7 97 a6 3c 88 24 1d bd
       -0.0045739254 0.027197212 0.020336075 -0.038364917
000230 f7 d8 2b bc 40 fd 8b 3d ba a2 ce 3c 57 f2 07 3e
       -0.01048874 0.06835413 0.025224078 0.13276039
000240 85 08 24 be 8d c7 1c be e0 6e db bd f3 03 fa bd
       -0.16018875 -0.15310498 -0.10714507 -0.122077845
000250 33 cd d4 bd 62 98 a3 3c f5 8d d7 bd f8 1b cb bd
       -0.10390701 0.019970123 -0.10525123 -0.09917444
000260 62 4d 13 bd 3a c1 76 bc 87 0b 8a bd 99 87 61 bd
       -0.03596247 -0.015060717 -0.0674048 -0.055060957
000270 0a a2 c1 bd 66 c0 de 3d a2 ba 8d bd 42 12 03 bd
       -0.094547346 0.10876541 -0.06920363 -0.031999834
000280 c3 ab 37 be 9d b0 ee bd 6f f9 ad 3d 4c 80 2d bc
       -0.17936616 -0.1165478 0.08494841 -0.01058967
000290 97 1e aa bd 63 35 ee bc 9f 39 63 3d 80 35 1e 3d
       -0.08306616 -0.029078191 0.055474874 0.03862524
0002a0 15 22 c3 bd 38 72 53 bd d6 cb 60 3d f8 5f ff bc
       -0.09527985 -0.0516226 0.054881893 -0.031173691
0002b0 6a df de 3c 2e 41 c0 bd 2a dc d4 3d e5 88 15 bd
       0.027206142 -0.09387432 0.103935555 -0.036507506
0002c0 3b 1f 73 3d 98 50 86 3b 19 84 45 be 30 ee c4 bd
       0.059355956 0.004098963 -0.19288673 -0.09615743
0002d0 9d d4 42 3d 37 14 b6 bc 62 2b 29 3d e3 81 d0 bb
       0.047566045 -0.022226436 0.04130114 -0.00636314
0002e0 11 56 fe 3d b9 f8 55 3d b5 e4 a3 3c 7d d3 32 3d
       0.124187596 0.052239154 0.020006517 0.043658722
0002f0 1c c8 5b bc ce 93 f5 3c f4 3e e1 3d eb cf 85 3d
       -0.013414409 0.029977705 0.109983355 0.06533798
000300 d4 23 bc bc 1d f3 2b bb 83 2c 14 3b b6 63 61 bd
       -0.022966303 -0.0026237436 0.002260954 -0.055026732
000310 e4 4e 2b bd cb b2 c2 bc 9e 4d 59 bd c9 8e 94 3c
       -0.041823283 -0.023766896 -0.053052537 0.018134492
000320 ce 67 38 bc 3b 16 a8 3c 90 f0 39 3d ad 97 2b bc
       -0.011255218 0.020518413 0.045395434 -0.010473174
000330 84 6e 1f be f6 45 14 be 78 a0 36 be a1 25 d0 bc
       -0.15569502 -0.14479813 -0.17834651 -0.025408568
000340 bf 95 f4 3c a3 ef 37 bd 09 32 f8 3d b6 76 0c 3e
       0.02985656 -0.04490627 0.121189184 0.1371716
000350 c4 eb ef 3d 90 78 91 ba 92 86 1a 3c 7a 61 a7 bc
       0.117148906 -0.0011098552 0.009431498 -0.020432223
000360 b1 a9 84 bd fc ff 9c bd f1 b0 d0 bd e3 a9 2c 3c
       -0.064776786 -0.07666013 -0.10189999 0.010538551
000370 77 09 07 be 0b 73 34 bd aa 97 e0 bc a3 90 09 3d
       -0.13187204 -0.044055026 -0.027416069 0.033585202
000380 91 51 c6 bd 4b 13 c7 bd fc a2 40 3c 41 f3 8d bd
       -0.09683526 -0.09720477 0.0117576085 -0.069311626
000390 37 c5 10 3d f5 c3 8e 3d 98 7d 47 3d b7 24 c5 bd
       0.03534433 0.069709696 0.04870376 -0.096261434
0003a0 7e a3 21 be 3d fd f2 bc d5 e2 f2 bd 45 5b 63 3d
       -0.15785024 -0.029661769 -0.11859671 0.055506963
0003b0 14 ec f0 3c 8a 22 73 bd 9f 2c 81 3d aa 54 86 3d
       0.029409446 -0.05935911 0.06307339 0.06559117
0003c0 ae 93 a6 3d 45 cc 9f 3d 1f 61 70 bd 92 a7 2e 3d
       0.081336364 0.07802633 -0.058686372 0.042640276
0003d0 ff 84 ed 3d 36 d8 d9 3c fb 77 7c bd 57 ca 81 3d
       0.115976326 0.026592355 -0.06163786 0.063374214
0003e0 c1 f2 02 bd 48 63 df bc 1c d3 19 3e ce 55 80 3d
       -0.03196979 -0.02726902 0.15021938 0.06266366
0003f0 f0 5a 90 3b 6a e8 c6 bd 6c dc 91 3c 33 f2 bd bd
       0.004405372 -0.09712298 0.0178053 -0.092747115

tpcnns.2.bias f4 [12]
000000 f9 83 87 3d 1d 2c bb 3e c1 51 1f 3e 65 f6 eb bb
       0.06616969 0.36557093 0.1555853 -0.0072010034
000010 01 d2 52 3e 87 f1 8f bb 4c 29 39 bd 00 70 41 bd
       0.20587923 -0.004392806 -0.0452054 -0.047225952
000020 4a 0a e2 3c 9e cb 1a be b0 14 f5 bd a1 78 b8 3e
       0.027592797 -0.15116736 -0.119668365 0.36029533

tpcnns.3.weight f4 [12, 12, 3, 3]
000000 ae 03 c7 3a 76 83 fd 3d 8e 4a 6f bc 58 e1 06 bd
       0.0015183592 0.1237859 -0.014605178 -0.03292975
000010 fa 55 5a be 53 68 8d bd 49 40 7f bc a3 2b 87 3d
       -0.2132186 -0.06904664 -0.015579292 0.0660012
000020 d5 5c 3f 3d 7b f9 33 3d ab db c5 3d 95 06 1e 3e
       0.04671939 0.043939095 0.09661039 0.15432198
000030 75 ab 91 bc 08 c1 d5 bd 2e 79 35 bd 85 7a 0e 3e
       -0.017781952 -0.104372084 -0.04430502 0.13913925
000040 1f ec 30 3e 68 08 96 3d 14 15 1c 3c 33 e3 de 3d
       0.17277573 0.07325822 0.00952651 0.108831786
000050 fc 05 af bd b5 eb 38 3d 9d f0 a1 bd 6e 8d 2b bd
       -0.08546063 0.045146663 -0.079072215 -0.041882925
000060 1d bc a2 3b f9 79 8f 3d 28 aa 85 3d c7 c6 6f bd
       0.0049662725 0.07005686 0.06526595 -0.05853918
000070 67 87 64 3d a7 f0 90 3c 55 f4 95 bc e9 f4 6a 3d
       0.055793192 0.017692877 -0.018304983 0.05736247
000080 a3 6a 2f 3d c3 65 ee bc 4c fc 23 3d 5c 90 37 bd
       0.042826306 -0.029101258 0.04003553 -0.044815406
000090 ae e8 80 3d fa 98 4e 3d a4 43 8b 3d c8 34 07 be
       0.0629438 0.05043886 0.06800011 -0.13203728
0000a0 da f2 4d be 50 e1 1b be a7 61 a8 3d 8d c2 75 3e
       -0.20112172 -0.15222669 0.08221751 0.23999996
0000b0 91 0d fd 3d 06 3f da 3a 08 f6 2f 3d a5 0f 10 3d
       0.12356103 0.0016650863 0.042959243 0.03517117
0000c0 65 1e 7b bb d5 cb 8a bd 69 9b e1 bd 15 ff 51 bd
       -0.0038317677 -0.06777159 -0.1101597 -0.051268656
0000d0 a5 e2 fd bc 47 00 c6 3c 91 a4 ea bd 85 75 00 be
       -0.030991862 0.024170054 -0.1145717 -0.1254483
0000e0 06 90 0c bd 3f 4e ea 3c ef dc 6f 3c 32 f0 23 3c
       -0.03431704 0.028601764 0.014640077 0.0100059975
0000f0 63 bd ff 3b f8 fe bc 3c 86 7e 56 bd a6 66 db 3b
       0.007804559 0.023070797 -0.052366756 0.0066955863
000100 23 99 d2 bc 65 5e 5a bc bf 45 27 bd b9 19 11 bd
       -0.025707787 -0.0133281695 -0.040838 -0.03542492
000110 a8 9d 42 3d 52 31 ea ba ec ad 87 bd 9b a2 ae bb
       0.047513634 -0.0017867482 -0.0662497 -0.0053294427
000120 0e 77 9f bc 63 c3 0c bd d1 31 ab 3c 7c 71 fb bc
       -0.01946595 -0.034366023 0.020897778 -0.030693762
000130 dd ed a1 3d 30 ec 94 bb 9a 12 94 bc 6e f4 d6 3d
       0.07906697 -0.0045447573 -0.018075276 0.1049584
000140 fe 42 a9 3d 93 07 7e bc 8b 20 86 bc e3 a6 f3 3b
       0.08264731 -0.0155047355 -0.01637294 0.007435666
000150 26 5f 9a 3d 57 3a 01 bd 98 aa 3a bd 78 1b dc bd
       0.075376794 -0.031549778 -0.045572847 -0.10747427
000160 32 fe 0d be c0 64 40 3c 20 60 3e 3d da 37 14 3e
       -0.13866499 0.011742771 0.04647839 0.1447443
000170 d2 d7 26 3d 0c 88 77 bd 64 dd 00 3c 53 1f d9 bb
       0.040733166 -0.06043248 0.007865284 -0.0066260486
000180 72 be f8 bc 07 cf 91 bd 05 24 53 3d 32 98 0c 3e
       -0.030364249 -0.071195655 0.051548023 0.13729933
000190 6e 4f 96 bc d2 67 f1 3d 22 d9 6d bd 17 1d fd bd
       -0.018348422 0.1178738 -0.058068402 -0.12359064
0001a0 c0 94 ca bd f5 e8 ac bc 66 4d e2 3d 05 36 82 bd
       -0.09891653 -0.021107176 0.11049919 -0.0635796
0001b0 86 6a 2e bd 29 f8 8d bd 2d 19 80 3d bb d8 36 bd
       -0.042582057 -0.069320984 0.06254802 -0.044640284
0001c0 53 b9 72 bd 0d a3 cd 3d ed 64 10 bc 76 e6 f1 bd
       -0.05925877 0.10040865 -0.008813125 -0.11811535
0001d0 26 ef 6f ba cc 0a 57 bc c8 96 25 3e 38 82 28 3d
       -0.00091527624 -0.013125133 0.161708 0.04113981
0001e0 03 34 93 bd a9 45 f3 bc 83 4e 6a bd a7 d7 4e bd
       -0.07187655 -0.029696302 -0.05720378 -0.05049863
0001f0 8e 92 52 bd 92 96 09 be 4f fb 57 3d 2a cb 07 be
       -0.051409297 -0.13436344 0.0527299 -0.13261095
000200 2b 73 0d 3d 2f 16 9e bc 1e fa e2 3c 89 b8 2a 3c
       0.03453366 -0.019297687 0.027707156 0.010419973
000210 7b 87 0e bd b3 90 53 be e7 03 4b bd 5e de 6a 3d
       -0.034797173 -0.20660667 -0.04956427 0.057340972
000220 61 89 3f bb af e3 b1 3c e7 5e 1a bd 86 5a 8f bd
       -0.0029226171 0.021715013 -0.037688162 -0.06999688
000230 fa 70 9a 3d 6f ec 26 3d 95 d3 43 3d 0a ed 68 3d
       0.0754108 0.040752824 0.047809202 0.056866683
000240 d9 29 9c 3d c4 e9 15 bd d9 8b 7c 3d b3 97 d0 bc
       0.07625169 -0.03659989 0.061656807 -0.02546296
000250 34 e6 84 bd 20 31 9e bd ce d1 cd 3c e4 55 ae bb
       -0.0648922 -0.077242136 0.025124457 -0.0053202976
000260 42 4d ba bc 9c 19 02 be 82 72 8a 3c 92 db 53 bd
       -0.022741918 -0.12705082 0.016900305 -0.05172307
000270 f7 67 c3 bd 4b 45 94 3c 54 c9 1e 3c ce 67 f6 3c
       -0.09541314 0.018099448 0.009691555 0.030078795
000280 72 a3 7f bd 03 66 5f bd 88 8a 5c 3d 74 40 c3 bd
       -0.062411733 -0.054540645 0.05384305 -0.09533778
000290 46 91 d1 bd 7e dd b8 bd 73 62 a3 bb 11 3f e7 bd
       -0.10232787 -0.09026621 -0.0049861013 -0.11291326
0002a0 5f 4f 89 3d ee bb 1b bd b4 76 cf bc 03 ba f6 38
       0.06704592 -0.03802102 -0.025325157 0.000117648415
0002b0 03 04 3a be f3 64 17 3c bd 85 fa bd e4 b1 a9 bd
       -0.18165593 0.009240377 -0.1223254 -0.08285883
0002c0 b2 74 18 3d 2c 8f c3 3c cc 97 50 3d f5 c6 fe b6
       0.037220664 0.02387198 0.050926015 -7.5929515e-06
0002d0 57 a0 03 3d a0 0f 1c 3d ee 84 e6 bb 39 e3 81 3d
       0.032135334 0.03810084 -0.0070348894 0.063421674
0002e0 94 16 55 bc 74 e5 32 bd 45 21 92 bd 30 7d ae 3c
       -0.013005871 -0.043675855 -0.07135252 0.021299928
0002f0 6c 31 a2 3c 18 36 6f bd df cc c7 3d 98 d2 85 bd
       0.019798957 -0.058401197 0.09755873 -0.06534308
000300 56 81 2b 3b 8b 73 56 3d 59 02 a2 bc 98 1d 2c bd
       0.002616962 0.052356284 -0.01977651 -0.04202041
000310 8f 8e e1 3b 9b f1 8a bd 3b 94 ba bd a8 4f a3 3d
       0.0068834494 -0.06784364 -0.09110304 0.079741776
000320 b7 f0 83 bd 9b ac 08 bd d4 d0 89 ba d3 20 40 3c
       -0.06442397 -0.033367734 -0.0010514506 0.011726576
000330 d8 ae f8 bb 16 76 14 bd 43 85 6f bc 02 e2 b7 b9
       -0.0075892024 -0.036245428 -0.014619174 -0.0003507287
000340 56 66 94 3d d9 dc 0f 3e 75 28 42 3b 9c 59 32 3d
       0.072460815 0.1404909 0.0029626165 0.04354249
000350 b0 81 c1 3c 59 de c5 bd 7a ad ee 3d 7e af 81 3d
       0.02362141 -0.0966155 0.11654182 0.063323006
000360 e3 b2 04 bd 8a 83 c7 bc 19 aa 09 bd be 29 cb 3c
       -0.032397162 -0.024354715 -0.033609483 0.024800178
000370 2c a9 81 bd fb eb 33 bd a7 38 44 bd 48 05 57 bd
       -0.06331095 -0.04392622 -0.04790559 -0.05249527
000380 6a a0 24 bd af 0b 54 bd 6f bc a8 bd e6 f5 a4 3c
       -0.040192045 -0.051768955 -0.08239066 0.020136785
000390 b9 f1 be bd 21 b0 0e be 55 ce 83 bd 42 21 7c bd
       -0.09323449 -0.13934375 -0.06435839 -0.061555155
0003a0 05 e1 9e 3c fc 63 81 3c 08 f3 90 bd 39 04 c1 bd
       0.019394407 0.015794747 -0.070776045 -0.094246335
0003b0 81 e9 7a bd b0 01 44 bb 02 31 6a bd 6f ad 78 3d
       -0.061257843 -0.0029908232 -0.057175644 0.060712274
0003c0 65 cd 33 bc aa b2 a4 bd b6 7b 51 bb 8e c8 5a 3d
       -0.010974263 -0.0804189 -0.0031964607 0.05341392
0003d0 af bc 82 bd e3 4e 25 3d 32 ce 82 3d 1b 55 a2 3d
       -0.06383645 0.040358435 0.06386985 0.07926389
0003e0 0c 65 af bc ed 0f 70 bd 7b da 45 bc d0 8c 0d bd
       -0.021410488 -0.058608938 -0.012076016 -0.034558117
0003f0 07 2b 5d 3d c9 b2 3d 3e 3d 4c d2 bc 11 b8 35 bd
       0.053996112 0.18525232 -0.025671119 -0.044364993

tpcnns.3.bias f4 [12]
000000 b4 67 96 bc 63 d2 56 3e c5 f9 f4 bc 41 44 5d bd
       -0.018359996 0.20978694 -0.029904256 -0.05402017
000010 08 2d ea 3d e9 15 e9 3e 81 bd bb 3d e9 4b 07 bd
       0.1143437 0.4552453 0.091670044 -0.033031378
000020 c4 14 29 bd e7 7f 84 bc e0 19 8a 3d 56 8d af bc
       -0.04127957 -0.01617427 0.067432165 -0.021429699

tpcnns.4.weight f4 [12, 12, 3, 3]
000000 00 07 ce bc a6 07 50 3d 48 ce d3 3c 54 32 55 bd
       -0.025149822 0.050788544 0.025855199 -0.05204995
000010 80 0a 4f bb 81 99 8d 3d d5 e0 97 3d d0 d5 34 3c
       -0.0031591952 0.06914044 0.0741593 0.011037305
000020 8c 8a c2 bd aa 89 77 bd 5c 1e a5 bc 22 03 10 bd
       -0.09499082 -0.06043402 -0.020156078 -0.035159238
000030 90 87 f4 3b a5 0a 93 3d 98 21 00 bc 80 ae e4 bc
       0.0074624494 0.07179765 -0.007820509 -0.02791524
000040 88 c4 46 3c 14 88 f6 bc 95 9b b3 bd 80 c6 14 3c
       0.012131818 -0.030094184 -0.08769909 0.009080529
000050 08 33 c5 3c 2b 80 b4 3d 1c 28 e6 bc 80 cb d1 bc
       0.024072185 0.088135086 -0.028095298 -0.025609732
000060 bd ef 91 3d a2 87 7a 3d 00 ce 13 3b b0 7d e3 3c
       0.071258046 0.061164506 0.0022553205 0.027769893
000070 90 ea 8f bb bf c3 61 bd 87 10 58 bd 20 89 2e bd
       -0.0043919757 -0.05511832 -0.052750137 -0.04261124
000080 80 b7 4d bd 80 28 40 3a 80 8e 75 3b 26 ad 44 3d
       -0.050223827 0.0007330254 0.003746897 0.04801669
000090 00 87 5a 3a 79 c7 9c bd 5f 18 8e 3d 18 4c 3e bc
       0.00083361566 -0.07655234 0.06938242 -0.011614822
0000a0 4a 58 bb bd 6c 6f e8 bc f0 8a 4a bd 81 1f 9b 3d
       -0.09147699 -0.028373443 -0.049448907 0.07574368
0000b0 e0 83 22 3c 31 70 ab 3d 3f 90 2e bd a2 60 60 3d
       0.009919137 0.08371008 -0.042618033 0.054779656
0000c0 53 9d 52 bd d6 33 16 3d 38 a2 2e 3c 28 3c 51 3c
       -0.051419567 0.03667053 0.010658793 0.01277069
0000d0 3a 6b 51 3d 20 b9 04 bc 58 8e d3 3c be 91 4e 3d
       0.05112765 -0.008100778 0.02582471 0.05043196
0000e0 e2 1a 18 3d 76 5d b0 bd 76 f7 4c 3d 07 b6 87 3d
       0.037135012 -0.08611576 0.050040685 0.06626516
0000f0 b1 b1 98 bd 0a bf 35 3d 54 51 94 3c 01 00 bd 3d
       -0.07455767 0.044371642 0.018105187 0.09228516
000100 a8 06 53 3c cc b3 98 bd 9d e4 64 bd 3a 56 bb bd
       0.012880005 -0.074561685 -0.055882085 -0.09147306
000110 ee 59 43 3d 5d 66 9c 3d 51 7b be 3d 00 6f 58 3b
       0.047693186 0.07636712 0.093008645 0.0033025146
000120 80 1f 6f bd 86 ec 66 3d 4a bd 07 3d 46 f6 42 3d
       -0.05837965 0.05637791 0.033139504 0.047598146
000130 4d 9d bb bd 80 bc 5e 3c 40 ff c7 3c 02 d6 3b 3d
       -0.09160862 0.013594747 0.024413705 0.04585839
000140 73 df a7 3d f8 f8 ac bc ec 85 cc bc 26 c6 8a bd
       0.081969164 -0.021114811 -0.024966203 -0.06776075
000150 f3 3c 93 bd 55 51 8b bd 10 7a 11 bd de ee 32 3d
       -0.071893595 -0.06802622 -0.0355168 0.043684833
000160 16 da 20 3d 3a 60 c0 bd 9a b0 a7 bd ab e6 67 bd
       0.039270483 -0.09393354 -0.08187981 -0.056616466
000170 a0 2f ef bb a4 7a 3a bd 1c 8b 05 bd 38 52 88 3c
       -0.0072993785 -0.045527115 -0.03260337 0.016640767
000180 c2 32 9c bd 6a d6 47 3d ec 33 9e bc 99 65 a9 bd
       -0.07626869 0.048788466 -0.019311868 -0.08271331
000190 2f cd a8 3d 34 74 04 bd 60 62 2a 3c a0 c9 ce bb
       0.08242261 -0.032337382 0.010399431 -0.0063106567
0001a0 f4 4a ba 3c 5d b6 a0 3d 71 2e b1 3d 74 76 9e 3c
       0.022740819 0.07847283 0.08651436 0.019343592
0001b0 60 45 71 bc b2 24 47 3d 0c 4d 52 bd e9 3c 73 bd
       -0.014726013 0.04861898 -0.05134301 -0.05938426
0001c0 60 4a 1d bc dd 39 9e 3d aa c9 5d 3d 45 94 56 bd
       -0.009600252 0.0772588 0.0541474 -0.052387495
0001d0 07 f4 90 3d d6 fa 45 3d c4 13 b6 bd 60 37 0f 3c
       0.070777945 0.04833492 -0.08890489 0.00874123
0001e0 07 15 8e 3d 99 68 26 bd ac 7a c9 bc a0 c7 ce bb
       0.069376044 -0.040627096 -0.024594627 -0.0063104182
0001f0 5c fd b7 3c 0f eb a8 3d f5 eb 83 3d 91 70 88 bd
       0.022459678 0.08247959 0.064414896 -0.06662095
000200 6c 7e 9d bc 6a 57 49 bd 6e c9 3f 3d 39 57 b5 3d
       -0.019225322 -0.04915563 0.046822958 0.08854527
000210 50 68 a9 3c 60 a6 ef 3b 4f ca c3 bd 77 10 2b bd
       0.020679623 0.0073135346 -0.09560072 -0.04176375
000220 11 88 8f 3d 66 2e ad bd ba a1 0e 3d 09 72 12 bd
       0.070083745 -0.084561154 0.034822203 -0.035753284
000230 40 72 77 3c f9 85 60 bd 50 46 b8 bb 88 1b 19 3c
       0.015102923 -0.054815266 -0.0056236163 0.009344943
000240 11 7e 80 3d 03 e9 bc 3d 80 72 7f 3c 7d 9c 55 bd
       0.06274045 0.09224131 0.015591264 -0.052151192
000250 da f9 4e 3d 1e 94 35 bd 66 8c 5a 3d 10 16 84 3c
       0.050531246 -0.04433071 0.05335655 0.016123801
000260 a9 4c 35 bd 74 f9 e2 bc 1e 90 82 bd 01 3d 8b bd
       -0.044262562 -0.02770684 -0.063751444 -0.06798745
000270 3e 08 0c bd d8 be 3d 3c 93 0a a8 3d 14 0c ef 3c
       -0.034187548 0.011581145 0.08205142 0.029180564
000280 6e 8e 01 bd 5a 7f 43 3d d1 17 90 3d e0 d2 9e bd
       -0.031629972 0.047728874 0.070357926 -0.07755065
000290 80 5e dc 3a 5c fb ec 3c 37 f3 42 bd ae ec 5c bd
       0.0016812831 0.028928451 -0.04759523 -0.053936653
0002a0 64 3c 66 bd 12 72 40 bd c6 dc 44 bd 66 7d 40 bd
       -0.056209937 -0.046983786 -0.04806211 -0.04699459
0002b0 00 6b 3f bd 3c 99 34 bd dc a6 e5 bc e0 a7 c5 bb
       -0.046732903 -0.04409145 -0.028033666 -0.006031975
0002c0 d0 86 84 bd 39 67 58 bd 38 9f 33 3c 7a 43 a2 bd
       -0.06471026 -0.052832816 0.010963254 -0.079230264
0002d0 0b 55 b2 3d d0 ea 31 3c e7 29 74 bd 3d 21 c0 3d
       0.08707627 0.010859206 -0.059610274 0.0938134
0002e0 47 c4 a9 bd 00 27 2e bc 87 35 a1 bd 4d de 87 3d
       -0.0828939 -0.0106294155 -0.07871538 0.066341974
0002f0 96 39 73 3d a7 ce 14 bd 70 af 49 bc 10 2c 00 3c
       0.05938109 -0.03632989 -0.012309894 0.007823005
000300 80 97 25 3a 7e 09 76 3d ca e9 92 bd c0 0d fb bb
       0.0006316826 0.060067646 -0.07173498 -0.0076615512
000310 c0 ca 9a 3b 46 51 20 3d 02 00 03 bd e8 cd d4 3c
       0.0047238767 0.03914001 -0.03198243 0.02597709
000320 9f f8 0f bd be fd 65 3d b8 0a bf 3c 68 67 e7 3c
       -0.035149213 0.05615019 0.02332054 0.02824755
000330 91 a2 29 bd aa 4e 02 bd d6 83 1a 3d 5d 16 bc bd
       -0.0414148 -0.0318133 0.037723385 -0.09183953
000340 99 4e bf 3d d2 50 96 bd 36 c7 3f bd 0a d9 03 3d
       0.09341163 -0.07339634 -0.04682084 0.032189406
000350 7b f0 9b 3d ab da a2 3d 38 87 b0 bd 00 ea 82 bd
       0.076142274 0.07951864 -0.08619541 -0.06392288
000360 7e ae 0e 3d 40 d4 a5 3b a3 da a7 bd bd 6f 7d bd
       0.034834377 0.0050607026 -0.081959985 -0.06187414
000370 96 d4 19 3d 56 2b 68 3d 72 3a a6 bd 1a 57 30 3d
       0.037556253 0.056681953 -0.08116616 0.043051817
000380 c0 3a 6c bb 2b 18 3c bd 06 dc a5 bd c5 17 a3 3d
       -0.003604576 -0.045921486 -0.08098607 0.07963518
000390 50 68 e2 bc 04 a8 a1 3c 29 09 79 bd 18 52 67 3c
       -0.02763763 0.019733436 -0.06079975 0.014118694
0003a0 c0 e0 bc 3c 20 f9 cb bb 40 6f f6 bb 90 1d 9c bb
       0.023056388 -0.0062247664 -0.0075205863 -0.0047642663
0003b0 5d cf bf bd c8 02 bb bc a7 53 a3 bd 9e 44 5c 3d
       -0.09365723 -0.022828475 -0.0797494 0.053776376
0003c0 00 27 2a ba e0 ea 31 3c dc 3c 36 bd da 95 29 3d
       -0.0006490797 0.010859221 -0.044491634 0.041402675
0003d0 d8 f7 1f bc ca 17 5d 3d cb 32 b9 3d 38 d2 17 bc
       -0.00976368 0.053977765 0.09042891 -0.009266429
0003e0 99 c0 ab bd 6d a6 50 bd 9d 38 97 3d 16 96 69 3d
       -0.083863445 -0.050939966 0.07383845 0.0570279
0003f0 48 47 92 3c 58 2c 7f bd e0 b8 cc 3c 68 1f 30 bc
       0.017856255 -0.06229815 0.024990499 -0.010749675

tpcnns.4.bias f4 [12]
000000 a7 f8 ac 3d a0 2b d8 3c aa 46 45 3d ee 2c 68 3d
       0.08445864 0.02638799 0.048163094 0.056683473
000010 e6 ba 2e 3d 1d 02 b8 3d c3 90 95 3d 00 5a a2 bb
       0.04265871 0.08984778 0.07303002 -0.0049545765
000020 f2 24 39 3d 7b e5 52 bd f7 0e b3 bd cd 81 85 3d
       0.04520125 -0.05148838 -0.08743089 0.06518898

tpcnn_ouput.weight f4 [12, 12, 3, 3]
000000 bb f2 86 bb 7d fa 1a be dc 96 c8 3b a3 86 aa bc
       -0.004118291 -0.15134616 0.0061214995 -0.020816153
000010 f4 11 06 3c e8 21 69 3c 64 d1 a1 bd fa 7a 97 bd
       0.008182991 0.014229275 -0.07901266 -0.07396503
000020 97 28 db 3c c6 c4 96 bc 4d 61 b3 bd 4e bc 0f 3d
       0.026752753 -0.018404376 -0.08758793 0.03509169
000030 24 c0 0e 3b 23 d2 82 bd 99 35 43 3d be 24 cf bc
       0.0021782005 -0.06387737 0.047658537 -0.025286075
000040 06 7a 1a 3d 21 b1 12 3d f9 9d e2 bc 0f d4 9a bd
       0.037714027 0.035813455 -0.027663218 -0.07559978
000050 1f 98 5f 39 51 ad be bc 11 3d 97 bd b4 b5 e8 3c
       0.00021323607 -0.023276003 -0.07384694 0.028406955
000060 0d 1a ae 3b 31 48 6d 3c a7 3b 85 3c 93 3d ad bc
       0.005313164 0.014482544 0.016263796 -0.021147525
000070 f3 c8 a8 3d e1 98 88 3c f9 6a 24 3d af aa 6e 3d
       0.08241453 0.01667446 0.04014108 0.058268245
000080 83 d0 23 bd 60 cb f9 3a 15 f6 00 3d 26 3d ba bc
       -0.039993774 0.0019057803 0.031484682 -0.022734236
000090 84 ea 1e 3d a8 57 99 3d 69 54 da 3c a2 ec 6d bc
       0.03879787 0.07487422 0.026651578 -0.01452175
0000a0 9b a3 58 bc 55 f3 51 bc 98 c3 0e 3c b6 7f 5e bc
       -0.0132226 -0.0128143625 0.008713625 -0.013580253
0000b0 f3 f8 8e 3c 3a 70 de 3c 96 15 8d bd cc b1 79 bb
       0.017452693 0.027153123 -0.06888883 -0.003810036
0000c0 b3 31 58 3d a8 8b 21 bc e2 e3 63 3c e7 ae 70 3d
       0.052781772 -0.009859957 0.013909312 0.05876055
0000d0 a0 cf 4d be 66 f9 ba 3b 79 5c 16 bc fd 12 e6 3d
       -0.20098734 0.005706 -0.009177321 0.112340905
0000e0 b6 d5 06 bd 3b 05 29 3d 1f 7b 2f 3c 4d d0 8d bd
       -0.032918654 0.041264754 0.010710507 -0.06924496
0000f0 46 a6 2b 3d 43 3e 97 3d c2 8c 22 bd 8d 07 24 3d
       0.041906618 0.07384922 -0.03968502 0.040046263
000100 71 80 bd 3d 42 6c 1d 3d 1f f6 59 bc 89 6e 9e bd
       0.09253014 0.03843332 -0.013303309 -0.07735927
000110 17 e1 82 bc 57 00 db bc d9 ee 80 3d 4e a7 18 3d
       -0.015976472 -0.02673356 0.062955566 0.03726893
000120 c8 20 18 3d 85 5e 0b bd 3e 7d 86 3c 50 81 22 3c
       0.037140638 -0.034025688 0.016417142 0.009918526
000130 5b 33 38 bd b8 ca 3b 3d 12 79 77 3c 7a 4e 2b be
       -0.04497085 0.045847625 0.015104549 -0.16729155
000140 da e2 85 3c 4b 1d 82 3d 4e 8d a6 bd ec c3 ca bc
       0.016343523 0.063532434 -0.081324205 -0.024751626
000150 d3 c2 2a bc 0c 51 b7 bc fa b3 ff 3c 0d 8e 78 bb
       -0.010422426 -0.022377513 0.03121375 -0.0037926466
000160 68 6b f3 bd 89 71 ef 3c e9 43 6e 3b ea de 8d 3c
       -0.118857205 0.029228942 0.0036356396 0.017318208
000170 78 9f d3 3c d1 56 03 bd 6d fe 61 3d a1 0c df bc
       0.025832877 -0.032065216 0.05517428 -0.027227702
000180 85 00 9a bc da 1f 02 3e 55 05 3d 3c 77 b1 88 bd
       -0.018799076 0.12707463 0.011536916 -0.06674474
000190 47 af b2 3d d0 3a 47 bc 8b 01 57 bd 5a 45 f1 3d
       0.08724838 -0.012160018 -0.052491706 0.11780806
0001a0 25 a8 d0 bb 78 c2 2d bd 2b 81 e4 3d b4 9e 9f 3c
       -0.0063677006 -0.042421788 0.11157449 0.019484855
0001b0 40 22 3a bc d8 73 10 be 55 86 26 3c 73 71 60 bc
       -0.011360705 -0.14106691 0.010163863 -0.013698923
0001c0 a0 bd 66 3c b7 12 90 3c fe 49 93 bd 16 6b 8e bd
       0.014083296 0.017587049 -0.07191847 -0.06954019
0001d0 1a 7c f5 3c 68 cb 4b bc b4 73 a2 bd 3f 43 01 3d
       0.029966403 -0.012438633 -0.07932225 0.03155827
0001e0 59 0c 81 3c 96 44 84 bd 49 9e 3c 3d fc fe 99 bb
       0.015752958 -0.06458394 0.04604939 -0.004699586
0001f0 7b ca e2 3c 58 2f 29 3d 06 fc d6 bc 01 21 99 bd
       0.02768444 0.041304916 -0.026243221 -0.07476998
000200 d3 9a d1 3b a1 6f 70 bc c1 7a 94 bd df 2e ee 3c
       0.0063966303 -0.014675052 -0.07249976 0.029075084
000210 37 b8 e1 3a e7 11 79 3c 9c 05 17 3c 6e db be bc
       0.0017221038 0.015202022 0.009217646 -0.023297992
000220 cf 66 a9 3d 97 98 9f 3c df 05 ad 3c 41 14 46 3d
       0.08271562 0.01948194 0.021120964 0.04835916
000230 18 6d 1b bd 21 7e e7 bb 5a 8f cc 3c 43 5f a4 bc
       -0.037945837 -0.0070645963 0.0249707 -0.020064956
000240 89 32 d4 3c 69 46 8e 3d 70 cb 93 3c a0 38 55 bc
       0.025903003 0.069470234 0.018041342 -0.013013989
000250 5f 57 9c bc 90 0b 38 bc 45 19 ac 3b 8c d9 ad bc
       -0.01908463 -0.011233225 0.005252036 -0.021221898
000260 27 74 71 3c 3b 3c 09 3c 7c 5d 9e bd e9 91 9b bb
       0.0147371655 0.0083761765 -0.077326745 -0.0047476185
000270 d8 cd 41 3d 2b 53 ac bc 54 12 03 3c d0 13 4d 3d
       0.04731545 -0.021035751 0.007999975 0.050067723
000280 31 ac 59 be 62 1e 2c 3b b7 38 93 3b f1 54 e4 3d
       -0.21257092 0.0026263227 0.004492845 0.11149014
000290 df 2d 01 bd 86 19 da 3c ee ee 4b 3c 7a fd 60 bd
       -0.031537887 0.026623499 0.012447102 -0.054929234
0002a0 dc a6 3f 3d bb 69 9b 3d e2 d3 09 bd 6d 36 39 3d
       0.04678999 0.07588526 -0.033649333 0.04521792
0002b0 e2 0f b7 3d 5d 40 31 3d 08 eb 48 bc bf f5 bd bd
       0.08938576 0.043274272 -0.012263067 -0.09275388
0002c0 45 2f 09 bc 79 83 03 bc e0 a8 6a 3d d7 ff 14 3d
       -0.008373086 -0.008026951 0.057289958 0.0363768
0002d0 c9 5f 38 3d 73 66 26 bd 95 f8 9a 3c 9c 0b d8 3c
       0.045013223 -0.040625047 0.018917361 0.026372723
0002e0 64 f8 4b bd 78 da 4f 3d f8 d3 02 3c 0b 1a 32 be
       -0.04979743 0.050745457 0.007985108 -0.17392747
0002f0 a2 a4 8c 3c 7f 62 3e 3d b3 46 a4 bd 91 83 a4 bc
       0.017168347 0.046480652 -0.08021297 -0.020082267
000300 bb 9e 09 3b 32 d2 00 bb ec 48 0a 3d 5d ca 5d 3c
       0.0020999152 -0.0019656536 0.03376095 0.013537017
000310 54 95 c8 bd c7 67 04 3d df 38 8b bc 3a af fe 3c
       -0.09794107 0.032325532 -0.016994892 0.031089414
000320 96 22 c7 3c d1 30 0f bd 70 26 75 3d cb 6f fd bc
       0.024308484 -0.034958664 0.05985111 -0.030937096
000330 0d c8 af bc 83 29 13 3e f4 c0 4b 3c 2e 49 67 bd
       -0.021457696 0.14371304 0.01243614 -0.056466274
000340 21 a0 ba 3d a9 dd 57 bb 2e c6 44 bd 5a d2 e5 3d
       0.091125734 -0.0032938516 -0.04804056 0.11221762
000350 5a 05 ae 3a 3b 6e 1b bd ad 55 00 3e 21 d1 56 3c
       0.0013276741 -0.03794692 0.12532683 0.013111384
000360 b7 91 fb bc 75 cc 74 3d 8d 38 0a 3c 0e 7a 95 3b
       -0.03070913 0.059765298 0.008436334 0.004561669
000370 6a d5 2e bb 4f 18 b3 bb 4c ba 14 bd 9e fd 88 bb
       -0.0026677498 -0.0054655443 -0.03631048 -0.004180624
000380 50 1f 9a 3c f5 3b d0 bc ea 86 3f be 07 2a 0e bc
       0.01881376 -0.025419215 -0.1870381 -0.008677012
000390 43 10 70 3b cc fa ca 3c 72 e2 15 3c f3 79 0b 3d
       0.0036630786 0.024777792 0.009148227 0.034051847
0003a0 b6 62 0b 3e ff 84 2e 3c 63 55 09 3c 93 c8 ad bc
       0.13611874 0.010651826 0.008382174 -0.021213805
0003b0 ca 6a b9 3c fd 2e 74 bb 9b fd 54 bd 0c 59 62 3c
       0.022633929 -0.0037259453 -0.05199967 0.013815176
0003c0 82 ae 3c bc a3 63 cb bc 58 d5 9c bc 3d 94 ae 3a
       -0.011516215 -0.024827784 -0.019144699 0.0013319325
0003d0 e5 b8 80 bd 33 fb 62 3c c2 c7 76 ba 60 45 ce bc
       -0.06285266 0.013853836 -0.00094139215 -0.025179565
0003e0 eb 24 68 bc 19 de e7 bc d7 29 02 3c 85 fe b0 bc
       -0.014168958 -0.028304147 0.007944546 -0.02160574
0003f0 af 5a 99 3c 29 46 f9 3d 74 ab 53 bc 03 6a 7c 3c
       0.01872 0.12171585 -0.012919296 0.015406135

tpcnn_ouput.bias f4 [12]
000000 37 2f 7a 3c 3d 58 80 3c 61 5f 13 bc 85 53 ae bc
       0.015270046 0.015667075 -0.008994908 -0.02128006
000010 da 52 26 be b0 ee 5b bf 68 e5 41 bf e2 fa 6e bf
       -0.16242543 -0.85911083 -0.7574067 -0.93351567
000020 40 13 74 bf c8 55 0c bf c6 44 1e 3c bb 09 23 3c
       -0.95341873 -0.5481839 0.009659952 0.00995105
